bp_net.pkl (torch_old, 27384 bytes, 10 tensors)

weight f4 [16, 6]
00000000: dde6 003e fda2 58be 1963 403e d010 643d
00000010: b7e4 d13e e44b 97bd c887 0dbf b667 30bf
00000020: f3a8 863d b359 00bf f1c9 a6be 3390 453d
00000030: f5c2 ebbe 96ea cebe e5f3 10be 89db f0be
00000040: 7c0b efbe 4375 10bf 3ec7 b83f c606 b5be
00000050: 83a0 fa3e b4cc a83d 4e40 4cbd 6703 083f
00000060: d8c7 523f 871d 13be 3821 2a3e e2aa c93e
00000070: 661f eb3e 35f8 1bbd ae38 283f 1efa 02bf
00000080: 7c15 423f dece 133f 7f5a 4e3f 7e31 a7bd
00000090: 2028 82be ec28 79be 485a eb3d bf74 e8bc
000000a0: dc9e 72be ed59 0abd 2498 873e e774 4e3e
000000b0: 8a04 9cbd b62e 40be f464 8f3e e6d9 e33e
000000c0: 8270 9abe 47ad 66be d41d 1cbf 1f74 d9be
000000d0: ea21 a7bd 943d ffbe a66a 853d 0f1b 43bd
000000e0: fc36 c13e fa74 b73e 2fa5 c9be 0b27 9b3e
000000f0: ab57 5a3f 663d a2bd e43e a1be 15c4 713e
00000100: 04f0 c03e 3025 bb3d 398d 8d3e a5ca 06be
00000110: 808e 3a3f 966c 1e3e 2317 25bf 2442 473e
00000120: 872f 583f b8cb 80be 081f d23e 88a5 11be
00000130: 6493 9b3d c115 0e3f 9b73 e93c 0f3f 2ebd
00000140: 017f c83e 04a7 af3e 1657 8bbe da41 35be
00000150: 2f2f 013f 22a7 d03d d353 113f e973 0f3f
00000160: f215 c73d a400 003f b065 183e 58c1 d93e
00000170: c242 dbbd c949 e73e 576e 4ebe bc74 cf3e
0.12588067 -0.21155925 0.18787803 0.055680096 0.40994808 -0.07387522 -0.5528531 -0.6890825
0.06575193 -0.5013687 -0.32575944 0.048233222 -0.46047178 -0.4041335 -0.14155538 -0.47042492
-0.4668845 -0.5642893 1.4435804 -0.3535673 0.48950586 0.08242169 -0.049866013 0.5313019
0.8233619 -0.14366733 0.16614234 0.39388186 0.45922393 -0.038078506 0.65711486 -0.511629
0.7581403 0.5773753 0.80606836 -0.08163737 -0.25421238 -0.24332017 0.11491829 -0.028375981
-0.23693413 -0.033777166 0.26483262 0.20161782 -0.07618053 -0.18767819 0.2800671 0.4450218
-0.30163962 -0.22527038 -0.60983014 -0.42471406 -0.081607655 -0.49851668 0.06514482 -0.047633227
0.37737262 0.35831434 -0.39383838 0.30303225 0.8529002 -0.07921867 -0.31493294 0.23609956
0.37683117 0.09137952 0.27646807 -0.1316324 0.7287369 0.1547111 -0.6448843 0.19458824
0.8444752 -0.25155425 0.410393 -0.14223301 0.07596472 0.55501944 0.028497508 -0.042540606
0.39159396 0.3430711 -0.2721488 -0.17700902 0.5046262 0.10188128 0.5676853 0.5603624
0.097209826 0.5000098 0.1488254 0.42530322 -0.107060924 0.4517348 -0.20159279 0.4051875

bias f4 [16]
00000000: 55d6 ac3d 6f7b 933e 64af 5e3e fe1b 553e
00000010: 7937 ab3d dd5a 9a3d 60bc 22be 0ee4 563d
00000020: 7f2d 3d3d ce77 63be c5fd ae3d a0ee edbd
00000030: b694 013e f53d 7bbd 9b51 043e ae55 a23d
0.08439318 0.2880511 0.21746594 0.2081146 0.0836019 0.07536862 -0.15892172 0.052463584
0.046185967 -0.2221367 0.085444964 -0.1161778 0.12654385 -0.061338384 0.12921755 0.07926498

weight f4 [32, 16]
00000000: f7d2 86be 4fce e6bd ca32 f23c 3f69 48be
00000010: 9a9c 9f3d 716c 293e 2272 673e 6d7b 6c3e
00000020: de3d acbe 57b9 bd3d d536 c33d c2da 2bbe
00000030: effc 9bbe b875 59bd aafd 60be caa0 8bbe
00000040: f470 8f3d 0008 43b9 e2f2 2dbe 0869 103e
00000050: fc08 c5bd 92bd 35be 9811 b23d 48dd 0e3e
00000060: b8b2 76be e423 93bd fe6b 1c3e 500a 28bd
00000070: 28ff 83bd 80c9 3d3d 8890 9fbd 60ac cfbd
00000080: bb30 78be ce3e 63be 0fc7 ecbe 2a1a 863d
00000090: f5a5 9bbe 3ec8 95be fe19 d9bd f52a fc3d
000000a0: df63 75bd eea0 43be 35f7 003e ec4a 173e
000000b0: e502 f8bd 3fac 7f3e 24e5 39be d63c 7f3b
000000c0: eeea 0bbc 7a00 0ebe 67e5 5abc 50d0 723f
000000d0: 2ef1 ecbc 31fa 2d3e 73bf f6bb 53b4 5fbe
000000e0: e702 10be d4cd b63e e385 133f a0e5 043f
000000f0: 0d8d c13e 3a44 a43e f8b8 293d 9a82 39bd
00000100: 6ad8 d4bb aac8 a6bd 1bbe 303c da09 56be
00000110: 39f3 7bbe 4324 00bf 4423 7cbe 223c 16be
00000120: 6240 383e 863b 6dbe df0f 173e 4d64 603e
00000130: 69b6 a9be 1454 e3bd 8770 3bbf 0cbe f3be
00000140: cdfe 85bd f2df ebbd 06a4 21be 4bcf 423f
00000150: 68f6 323e 0da4 113f 00f1 413d 2a35 843e
00000160: 6f3a 55be 9cd1 9b3e 5472 093e 54d8 2a3f
00000170: 7d6a 7c3e 3f73 04bd a6b6 603e 084b dabd
00000180: 5c92 093e 6fce 0fbe 8828 253d 6c75 f8bd
00000190: f267 82bd 9d2d 82be c063 a3bd 30f0 673e
000001a0: 4338 97bd ea14 4dbe a024 42bd 682c 183d
000001b0: 50c1 32be 743f e13d 9e13 4abe 54a6 513e
000001c0: 7b6d 103d 3c8c 623e 9bf5 a73e 327b 21bf
000001d0: be10 86be 3865 eebe ea75 81bd aef8 7dbe
000001e0: f51e 9b3e dbe3 2fbe 6061 af3d 47ef 383e
000001f0: 306f d5be 4c0b 013d d0f6 a0bd 92e7 8bbe
00000200: 7342 273d cc1f 853c d307 5a3e e8c1 d53e
00000210: 4cef d5bd 7615 363e 1c3c 66be 699b 743e
00000220: 3929 95be 54e1 b33e 1231 833d 9c37 fbbd
00000230: 9f51 993e 6283 4c3e c350 bf3e 623f 15bc
00000240: 9082 1f3e cfaf 403e ce79 513c cd19 193f
00000250: 3bb0 d13c a018 2a3f 83c1 2abe 98a7 9b3e
00000260: af85 6f3e 3fd6 003f 3a14 c33e 5fc4 1a3f
00000270: 3d68 913e e314 a83e 6daf 593e 24d8 203e
00000280: 12cc 9a3b 669f 51be 384b 753d 4e7c 3d3e
00000290: 5dbe 3a3d c431 ed3d 75c1 e33d 0ecf cfbe
000002a0: f0de 053a 44cf da3d 735e ed3e 9747 8a3d
000002b0: 7560 2bbe d759 123e 39b5 b8be 70cd 1abf
000002c0: aec9 c5bd 8ac7 a93e 7774 b83e 5d9b 24bf
000002d0: e3c8 7ebe 9312 c9be 665f 12bd cd75 d9be
000002e0: 65c6 883e 50d8 7ebe 4fa6 00bd 6643 943d
000002f0: 5b8b b0be 1f24 593e 7e58 35bf c867 0cbf
00000300: 4928 933e 5e28 bcbc d39b 0abe 58c4 f83c
00000310: b669 203e 250f b83e 27dd 263e e1b0 863e
00000320: 9002 c13e abcd a4be d107 f83d 0a8a 36be
00000330: ee50 b03d 7fe0 28be 01f7 d9bd c227 cfbe
00000340: cdda ee3d fa2a 05be 7ff8 4cbc 7848 553f
00000350: 5782 e6bd 01f9 2e3f bb1b b33e 87b2 0cbe
00000360: e0a7 b33b b1ac a23e f8cd 673f ee9f 3e3f
00000370: 415c 5f3e bfb9 0ebd c5c6 823e ba82 75be
00000380: 49f8 8a3e 2246 ad3e ab5a a53e b12b 2fbf
00000390: 3145 01be 9891 07bf c2a1 5f3e bef8 aebe
000003a0: 2089 0dbd 0226 bdbd b4f6 0dbe 181b babd
000003b0: 1873 02bf 2677 20be 588b 3abf 268b a4be
000003c0: 81c4 dcbb d892 55bd c7a5 d9bd 6476 313e
000003d0: 662b a33e 00db 0b3d 9059 a53d 1411 e53c
000003e0: ea21 c03d efa1 a33e 8b02 973e 11f4 163e
000003f0: 2abe db3e 1342 003e 8d03 d23e 5881 d3bd
-0.26332828 -0.11269819 0.029565234 -0.19571398 0.07793541 0.16545273 0.22602132 0.23093958
-0.3364095 0.092638664 0.09531943 -0.16782668 -0.3046641 -0.05309078 -0.21971765 -0.2727111
0.07003966 -0.0001859963 -0.16987184 0.14102566 -0.09620854 -0.17748097 0.08694762 0.139516
-0.24091613 -0.0718458 0.15275571 -0.04102546 -0.064451516 0.046334743 -0.07791239 -0.101403
-0.24237339 -0.22191927 -0.4624562 0.06547959 -0.30400053 -0.29254335 -0.10600661 0.12312881
-0.059909698 -0.19104359 0.12594302 0.14774674 -0.12109927 0.2496805 -0.18153816 0.0038946173
-0.008539898 -0.1386737 -0.013360358 0.9484911 -0.028923597 0.16989972 -0.0075301467 -0.21846132
-0.14063607 0.3570391 0.5762617 0.5191288 0.37802926 0.32083303 0.041436166 -0.045290567
-0.006495525 -0.081437424 0.010787512 -0.20902196 -0.24604501 -0.5005533 -0.24622828 -0.14671376
0.1799331 -0.23167238 0.14752148 0.21913262 -0.3314698 -0.11100021 -0.7321858 -0.47605932
-0.0654274 -0.115173236 -0.15785226 0.76097554 0.17476809 0.56890947 0.047348976 0.2582181
-0.20823072 0.30433357 0.13422519 0.6673634 0.24649997 -0.03233647 0.21944675 -0.10658842
0.13434738 -0.14043592 0.040321857 -0.121317714 -0.06367482 -0.25425425 -0.0797801 0.22650218
-0.07383778 -0.2002751 -0.04739821 0.037151724 -0.17456555 0.10998431 -0.19734046 0.20473605
0.03526066 0.22123808 0.3280457 -0.63078606 -0.26184648 -0.465616 -0.063213184 -0.24801895
0.30297056 -0.17176764 0.08563495 0.18060027 -0.41686392 0.031504914 -0.07859576 -0.27325112
0.040834855 0.016250513 0.21292047 0.417495 -0.10446033 0.17781624 -0.22483867 0.2388741
-0.29133013 0.3513285 0.06405844 -0.12266466 0.29945084 0.19971994 0.37366304 -0.00910935
0.1557715 0.18817066 0.012785388 0.59804994 0.025596729 0.66443825 -0.16675381 0.304013
0.2339084 0.50326914 0.3810137 0.6045589 0.2839984 0.32828435 0.21258326 0.15707451
0.004724034 -0.20470962 0.059886187 0.1850445 0.0455917 0.11581758 0.111208834 -0.40587658
0.00051067676 0.10684064 0.46361122 0.06751936 -0.16736014 0.14292084 -0.36075762 -0.6046972
-0.09657608 0.3316005 0.36026356 -0.64299566 -0.2488132 -0.39271984 -0.03573551 -0.42472687
0.26713863 -0.24887204 -0.031408604 0.07239418 -0.3448132 0.21205185 -0.70838153 -0.5484586
0.28741673 -0.022968467 -0.13536005 0.030367061 0.15665326 0.35949054 0.162953 0.26306823
0.37697268 -0.32188162 0.12110866 -0.17826095 0.08609186 -0.16491888 -0.106428154 -0.4046002
0.11662827 -0.13004676 -0.012510418 0.83313704 -0.11255329 0.683487 0.34982094 -0.13739978
0.0054826587 0.31772378 0.9054866 0.74462783 0.21812536 -0.03484511 0.25542274 -0.2397565
0.27142552 0.3384257 0.32295737 -0.6842604 -0.1262405 -0.52956533 0.2183905 -0.3417415
-0.0345546 -0.09235765 -0.13863641 -0.09087199 -0.5095687 -0.15670452 -0.7286887 -0.32137412
-0.0067372923 -0.052141994 -0.10627323 0.17330319 0.31869048 0.0341444 0.08073723 0.027962245
0.093814686 0.31959483 0.29494128 0.14741541 0.4291852 0.12525205 0.41018334 -0.10327405

bias f4 [32]
00000000: 8c8b b5bd 7efb 25be 4f57 233c d9d6 4dbc
00000010: 0cc1 4d3e d25e 273e f858 aebe f950 f13d
00000020: fed6 45bd cd2d d43d 72ee 3a3e d30b cd3d
00000030: 29a6 17bd 31ad 33bd 95c5 953d 4632 ad3d
00000040: 2330 1d3e 3158 eebd 2ce3 ffbc 08b3 aa3e
00000050: ab81 273e 765c 8cbd 8d39 9fbe 6ae0 313e
00000060: 6b06 643e 3ed7 48be e29f 57bb 69f0 f3bc
00000070: ff03 c2bd e9e1 02be 3ee0 6fbc 15e4 a43d
-0.08864507 -0.16209218 0.009969546 -0.012563431 0.20093173 0.16344765 -0.34052253 0.117830224
-0.048300736 0.10360298 0.18255022 0.10012021 -0.037023697 -0.04386634 0.073130764 0.084568545
0.15350394 -0.11637915 -0.031236254 0.33339715 0.16358058 -0.06853573 -0.31098595 0.17370763
0.22268073 -0.19613358 -0.0032901694 -0.029777722 -0.094734184 -0.1278149 -0.014640866 0.08051316

weight f4 [64, 32]
00000000: 129e 9d3e 5dca 2bbe 5286 96bd 1db0 bebd
00000010: d936 a1bd 2b2a 553e 66bf e53d fd5a a23d
00000020: 5510 af3e 6be5 ce3e 6ec3 59be 8554 7cbe
00000030: 35ed 983e 869b af3e 622f 20bd 599d a83e
00000040: 548b 5dbe a667 b03c 5d89 80bd c187 67be
00000050: 1402 32bd 937d 743e c46f a23d 66e2 93be
00000060: 23e5 af3d 5c7e 2b3f fba9 103e ef22 503e
00000070: e5c3 d33c d5a3 0abe e712 c03e 1d0e 103e
00000080: e7c2 21be 5985 0d3e 0d5a b03e 184d a33c
00000090: a0b4 a93e 4037 65bb 88e6 0fbe ea41 1f3e
000000a0: a475 35bd 137b 3dbe a8de e83d 9d10 4e3e
000000b0: 7aa2 cbbe 8608 bbbd 1d15 443e e2ed 7bbe
000000c0: 5526 603e 3dbc cebc 4426 d43d 443a c53e
000000d0: 8da7 a63d 1dbb 41be 2d96 b2bd dec0 913e
000000e0: 3d0d aa3e 7b1f bdbd 4a09 c8bd 3954 5abe
000000f0: b158 9dbd d08d 71bb c8a1 bdbc 033d 33be
00000100: bcea 623e 54f6 443d 51b4 74be 352f d4bd
00000110: c87a bebd d88e b63a 3663 533d ab0e ef3d
00000120: 121e 743d 4afd 9cbe 66bc b13d 6209 d03d
00000130: 2137 3a3e 479c 8b3d d244 ae3d 44f5 b33d
00000140: b5c1 eb3b d71b 053e e13d a13d 7c4e 6e3e
00000150: 0928 05bd 95c2 4abc 7d67 d03d fc84 023e
00000160: 9ea6 8c3d 74e1 0dbe 8466 173d f18e c63b
00000170: 0746 fcbd 663e f03d 7a95 7b3c 1dc8 98bd
00000180: a20b 993d 2211 c13d 6928 0cbe 344b 383d
00000190: e454 febd 5900 2f3e fa71 1bbe 9c66 07bd
000001a0: 406c b3bc 506c 40bc 8c2f 39bd 00af 383a
000001b0: 700d 6f3d 1b28 31be 3a4f 02be f0c5 0cbd
000001c0: be9e 16be 1020 85bc f961 003e dd26 10be
000001d0: ee2a b33d 8c3c f0bd a677 c7bd e3cb 1e3e
000001e0: 5217 be3d abff 2ebe f2ec f4bd 42f2 bc3d
000001f0: 6b2a 1abe 802c 6b3c 0cb8 52bd a7cb 0b3e
00000200: 44e6 713e 1881 423d 7397 a4bc ca4c 0dbe
00000210: d21c d5bc afae 88be e68b 15bd 376f 303d
00000220: 7b13 cbbd 89d3 aebe 2fc8 9e3c a540 82be
00000230: ed7c 89be 41ee 153e fa06 a2bd d3bb 853d
00000240: bd44 78be 2fba 91bc 2387 d2bd f5b9 7dbe
00000250: 7d5b a5bd 6876 423a 4e2f 923d fda5 60be
00000260: fa2b 69be 41bb 61bd 3a22 fc3d c50b 313e
00000270: 270e e93c c5f0 1abd 0157 1dbe e4e6 99be
00000280: c60c 6abd 3a2b 99bd 4a18 ac3e 3b8b cbbd
00000290: 98ba a83e d1ce 4bbe 57ad e7bd 6aac e13d
000002a0: 8117 0ebe ea58 8ebd f845 183e 105c b33e
000002b0: 6b0c 98be 14f5 1e3d ba08 a43d 64dc 39be
000002c0: 3cf0 7b3e 951a 143e 8e56 803e 6fb3 a43d
000002d0: 80ab a03e aa97 d3be 62a2 3bbe ece2 493e
000002e0: b9d1 d13d 3ee4 55be e254 a6be 16ec b0be
000002f0: bc3e e8bd fcc1 71bd ed37 68bd 6aa1 dfbd
00000300: 1564 05be 0044 21bb 78c9 1f3e 487c 7ebd
00000310: 0408 8b3e 62ba fbbd aa48 01be e4b4 b33d
00000320: f641 263c b9cf eabd a27f 653e 800e 913e
00000330: e2ae c0bd 2585 d3bd eef7 243e 5e2c 6fbe
00000340: cde1 523c e982 9b3d bec3 a63e 6642 223e
00000350: 9714 7b3e 18da 67be d415 20bc dc30 6c3e
00000360: 9fe8 153e baa7 bfbe 7c38 8fbe a94d a7be
00000370: a7c9 0fbc 9c62 e43d 7e04 41bd f5a9 c1be
00000380: efa4 11be 38db 3abd dacb b93d f351 1cbe
00000390: 0cd4 8c3d 4daf 0cbe 60b2 723d fbd5 e9bb
000003a0: 30b3 9bbd b48e 1dbe c98d 683d 7b96 1e3a
000003b0: eb35 61be a808 84be e462 51be 3a90 2fbe
000003c0: 8f54 57be e722 7f3d f168 7fbd 0c9a 503d
000003d0: 8e1c c7bc d55f a1bd 9246 e3bd 3e4f a5bd
000003e0: 12e6 e13d bf78 85be 7cf4 753c 3c50 303d
000003f0: 26bc 99bd f559 333e ae14 5fbe 31b2 6cbe
0.3078466 -0.16776414 -0.07349838 -0.09310935 -0.078717895 0.20816867 0.11218147 0.07927511
0.34192148 0.40409407 -0.21265957 -0.24641617 0.29868475 0.34298342 -0.039107688 0.32932547
-0.2163518 0.021533798 -0.062762 -0.2261038 -0.043459013 0.23876028 0.07931474 -0.28883666
0.08588626 0.66989684 0.14127342 0.20325826 0.025850246 -0.1353906 0.3751442 0.14067884
-0.15797006 0.138204 0.34443703 0.019934222 0.33145618 -0.0034975559 -0.14052784 0.15552488
-0.044301644 -0.1850398 0.11370593 0.20123525 -0.39772397 -0.09132485 0.19148679 -0.24602464
0.21889623 -0.025236243 0.10358861 0.38521016 0.081374265 -0.18919034 -0.0872005 0.28467458
0.33213225 -0.0923452 -0.09767397 -0.21321191 -0.07682932 -0.0036858208 -0.023148432 -0.17503743
0.22159857 0.04808648 -0.2389691 -0.103605665 -0.093007624 0.0013928069 0.051608287 0.116727196
0.05959899 -0.30661994 0.08678512 0.1015804 0.18185093 0.06816917 0.0850922 0.08787015
0.0071947225 0.12998901 0.078731306 0.23272127 -0.032508884 -0.0123754935 0.10175989 0.12746042
0.06867717 -0.13855535 0.036963 0.0060595204 -0.12318044 0.117306516 0.015355462 -0.074600436
0.07472922 0.09427096 -0.1368729 0.044993594 -0.12418535 0.17089976 -0.15180197 -0.03305684
-0.021902204 -0.011744574 -0.04521136 0.000704512 0.058362424 -0.17300455 -0.12725535 -0.034368455
-0.14708993 -0.01625064 0.12537374 -0.14077325 0.087484226 -0.117302984 -0.09739618 0.15507464
0.09281792 -0.17089717 -0.11959256 0.092258945 -0.15055244 0.014353871 -0.051445052 0.13651906
0.23622996 0.047486395 -0.020091748 -0.13798824 -0.02601472 -0.26695773 -0.03651037 0.043074813
-0.09915825 -0.34145764 0.019382564 -0.25439945 -0.26853123 0.14641668 -0.07911487 0.06529965
-0.24244972 -0.017788975 -0.102796815 -0.24777968 -0.08074091 0.00074181566 0.07137929 -0.2193832
-0.22770682 -0.05511022 0.12311216 0.17289646 0.028449131 -0.037827272 -0.1536522 -0.30058968
-0.057141088 -0.07478948 0.3361228 -0.099386655 0.3295486 -0.19903113 -0.11312359 0.110192135
-0.13876154 -0.06950553 0.14870441 0.35031176 -0.29696974 0.038807943 0.08009477 -0.18150479
0.24603361 0.14463265 0.25066036 0.08042037 0.31380844 -0.41326648 -0.18323663 0.1971547
0.102450795 -0.20887849 -0.32486635 -0.3455512 -0.11340091 -0.05902289 -0.05669396 -0.10919459
-0.1302646 -0.0024607182 0.15604198 -0.062130243 0.27154553 -0.12291409 -0.12625375 0.087747365
0.010147562 -0.11465401 0.2241197 0.28331375 -0.09408356 -0.1032813 0.16110203 -0.23356768
0.012871218 0.075933285 0.32571214 0.15845641 0.24519573 -0.2264179 -0.009770829 0.23065513
0.14639519 -0.37432653 -0.27972782 -0.32676437 -0.008776105 0.11151621 -0.047123425 -0.3782498
-0.14223073 -0.04561922 0.09072085 -0.15265636 0.06876382 -0.13738747 0.059252143 -0.007136104
-0.07602537 -0.15386468 0.05677584 0.0006049645 -0.21993224 -0.25787854 -0.2044788 -0.17144862
-0.2102835 0.062289145 -0.06235594 0.05092816 -0.024305608 -0.07879607 -0.110974446 -0.08071755
0.110302106 -0.26068684 0.015011903 0.043045267 -0.075065896 0.17514785 -0.21785232 -0.2311485

bias f4 [64]
00000000: 49f0 053d 539c 2a3e 0fa0 383d 8010 17be
00000010: 83f3 f8bd b2d0 673e 0596 5b3e 0912 4ebe
00000020: 3046 873e 6cf0 5ebe 693e 4dbe 0ec1 463e
00000030: a34d 4dbd 4f26 0abe ff74 5ebe 6bfc acbd
00000040: 704c 0abe 5ab8 66be af32 12be 02db 8f3e
00000050: 02bc 8cbd 8bcc ffbd bb98 8a3e cab8 09be
00000060: 0744 24be 53f5 6a3e c3c9 8c3e 4836 e83d
00000070: 3fd9 913e 08b0 683d 7559 abbd 13c1 373e
00000080: 5e0a 8abe 6d64 f4bc 081b 1abe c5cd 76be
00000090: bb7a cbbd 9214 63be 9b44 f6bd 8f99 24be
000000a0: 6503 153d d308 94be c8a2 2ebd 272a 82be
000000b0: dc30 f4bd cc08 8fbd e95f afbd c2cc 71be
000000c0: 238a 92bd 7526 913e fd52 49be 3c1c 38be
000000d0: 33dd a93e 79ed 59be 0ff3 7dbe 5d3e 8b3e
000000e0: 1614 87be 144e 57be e206 6a3e 2e66 5fbd
000000f0: 08e1 0bbd 24b0 8c3e 3d61 e5bd def5 51be
0.032699857 0.16661195 0.04507452 -0.14752388 -0.12155821 0.22638205 0.21443947 -0.20124067
0.26420736 -0.21771401 -0.20043339 0.19409582 -0.05012287 -0.13491176 -0.21724318 -0.084465824
-0.13505721 -0.22531262 -0.14277147 0.28096777 -0.06871797 -0.12490185 0.2706965 -0.13449398
-0.16041575 0.22945146 0.27497682 0.11338478 0.28486058 0.0568085 -0.08366672 0.17944746
-0.26961035 -0.029833043 -0.15049374 -0.24101932 -0.09935518 -0.22175816 -0.12024804 -0.16074203
0.03638019 -0.28912982 -0.04263571 -0.25422785 -0.11923382 -0.069841 -0.08563215 -0.23613265
-0.07155254 0.28349653 -0.19660564 -0.1797952 0.33176574 -0.21281995 -0.24799751 0.27196017
-0.26382512 -0.21025878 0.22854188 -0.054540806 -0.034150153 0.27478135 -0.11200187 -0.20503947

weight f4 [32, 64]
00000000: 617f aebd 93db e5bc f548 eebd 56dd d83d
00000010: 60cb 19be 1b13 1dbe 4c30 6b3d d860 20bd
00000020: 20ca 35be 4a41 5cbe 6e7c debd dc40 a1bd
00000030: 60be afbc e63d c53d 56d1 d4bd ec2d c63d
00000040: 82d7 6ebe 7878 86bd 78fa ec3c 2c80 34be
00000050: e064 263d 4f68 8cbc 22f1 3b3c 03fd 0abd
00000060: 4f88 fdbd 00eb f5bb eeb7 a2bd 4fbd 37bd
00000070: 851f b5bd 56ea eebd 25dc 62bd f5f6 9bbd
00000080: eaaf ccbd 96e2 d8bd 530b 1dbe 8858 b6bd
00000090: fa45 b1bd 08f6 3fbe 2f56 cdbc 10a1 433c
000000a0: 676a 75bd 972d 4bbe 1efa a0bd 5cd9 913d
000000b0: c472 403d e0e7 88bc 8836 f93c 202e f6bd
000000c0: b1f8 99bc e8c8 643d 6e0c 3fbe f27e 77bc
000000d0: c439 8cbd 5018 ac3c c112 41be 58de 7abd
000000e0: 4513 8abc 64d2 11be bef3 f2bd baf1 a53d
000000f0: 4c6e 7c3d bbcb 31be 90f8 48bd abf1 4fbe
00000100: 69ea c0bd e526 f63d 3389 6d3e 489c 8a3d
00000110: 8a84 b23c 0bb2 a43e 9d6f a03e 8161 c6bc
00000120: ddd7 973e 4524 34be 0a7b cbbd 0244 a13e
00000130: 24a5 893d e6e1 ce3d 7876 9fbc f8a0 d53c
00000140: 58db 87bd 9ead e8bd edf8 483c 1c6c 9c3e
00000150: 80e5 fabd 9dd1 dcbd 685a a23e 0b43 563d
00000160: 4a0e 88bd 4aef 3a3e b67f a33d 1777 223e
00000170: b914 943e 017e 913e 37e8 053b 66fc f43d
00000180: a25c 24bd 78af babc 4db7 8c3b 7f15 5abd
00000190: 94fd 133d 6974 02be 06c3 303e 1b9e fcbd
000001a0: 8bf8 27be b14a 53bd d041 a23d f06a 52be
000001b0: 3c67 eebd c0a2 ef3d 880e 95bd 92aa d7bd
000001c0: b249 28be ee3f b13d d2f7 b1bc d43f a23c
000001d0: 1152 933e af0c c4bd add6 323d f0a0 fc3d
000001e0: 00d4 0ebe 725c e7bd ecf0 0d3e c0cc a73b
000001f0: 4bbc 1cbc bbe7 0a3e 6d06 8dbd 1ab9 6bbe
00000200: 8a8a 1d3e c316 f0bd a201 b3bd c08d b2bb
00000210: 3146 863e 88ea 4abe a6b4 11be 7c7f 3b3d
00000220: 69e3 75be dc7e 4b3f 3dc8 2d3e e00f d2bd
00000230: a61e 43be 0ad9 ee3d 6764 7d3d 3e25 9e3d
00000240: 1030 4e3d e352 9dbd 2425 513d 2a62 48be
00000250: 7270 fcbd 94e0 593e 69c2 92bd f9c2 e13e
00000260: 407a 133e bcff 8dbe b32b fabc 24c4 4cbe
00000270: e49f 18be 9333 473d 3cbb 033d 8ca8 2bbd
00000280: 6214 debd e36e 48be 2324 823e 21da f93d
00000290: 33b8 d8be 6fdf f53d f73f cc3e 27d0 ea3c
000002a0: bb3b a73d 1a7e d33e 88f4 e43c 2caf 44bd
000002b0: abd2 4bbc b575 e7bd 5e5c 813d 276b 043e
000002c0: f416 333d 5cdd ebbd 18a5 753c e70f ad3b
000002d0: 7fff 36be 49ee 273e 6ca5 e53d 98cc 82be
000002e0: 5cb2 fa3d 0999 523e 8ab7 10be f6de c9bd
000002f0: 32ea 8d3e 4b6e c6bd 1aae 713e 853e 453d
00000300: 1646 bdbd 8a93 8fbd 8079 12bb 5e12 e33d
00000310: f8bf f4bd 049b 333d 2c38 9abd 80b7 b2bd
00000320: aa48 e4bd 2023 e0bc 60d1 40bd 3835 083d
00000330: c85e c73d 9024 ee3c 2019 a7bd 0075 883b
00000340: 28fc dc3c ec64 573d 9468 55bd e651 b73d
00000350: 307e de3d 923d a2bd 9097 42bd 20ca e53b
00000360: 781e 11bd 00bb b3bd 500b 103c 18cf ebbd
00000370: 3ab4 953d a858 4a3d 503d e5bc b4b0 bbbd
00000380: c046 983b 8027 06bc 706c 6a3c 0cea b7bd
00000390: 2adc 99bd 9893 cabc a4da 9c3d fe7a a83d
000003a0: f038 2b3d 20de ccbc 8a4b b33d c689 e13d
000003b0: 3443 e33d 8c85 b7bd 4034 833d 8afe 88bd
000003c0: 92cf d93d 3e6d 8e3d 14af 02bd 408b 7a3b
000003d0: b8d1 ee3d fc44 adbd 405f 02bd b085 7f3d
000003e0: 285e 8f3d 8c54 1abd 607b e13b c00c d8bc
000003f0: 00f4 acbd b840 e9bd 047e a73d 1076 74bd
-0.08520389 -0.028058803 -0.11635009 0.105890915 -0.15018988 -0.1533932 0.057419106 -0.039154857
-0.17752886 -0.21509281 -0.10863577 -0.07873699 -0.021453083 0.09630947 -0.1039149 0.09676728
-0.23324397 -0.06565946 0.028928027 -0.17627019 0.040623546 -0.017139582 0.011471065 -0.033932697
-0.123795144 -0.007504821 -0.07945238 -0.044858273 -0.088439025 -0.1166579 -0.055385727 -0.07615463
-0.099944904 -0.10590093 -0.15336351 -0.08903605 -0.08655925 -0.18746197 -0.02506551 0.011940256
-0.059915926 -0.1984161 -0.07860206 0.07121536 0.04698445 -0.01671213 0.03042151 -0.120205164
-0.018795343 0.05585566 -0.18657085 -0.01510595 -0.068469554 0.021007687 -0.1885481 -0.0612472
-0.016854892 -0.14240414 -0.118628964 0.08102746 0.061628625 -0.17362873 -0.049065173 -0.20307033
-0.0941971 0.12019137 0.23196869 0.067680895 0.021791715 0.32167086 0.31335154 -0.024216415
0.29656878 -0.1759196 -0.09935577 0.31497198 0.06720951 0.101016805 -0.01946567 0.026077732
-0.066336334 -0.1136124 0.01226638 0.3055123 -0.12250805 -0.10782168 0.317096 0.05231003
-0.066433504 0.18255344 0.07983343 0.15865742 0.2892206 0.28416446 0.00204326 0.11962204
-0.040127404 -0.022788748 0.004294312 -0.053243157 0.036130503 -0.1273972 0.17261896 -0.12334844
-0.16403405 -0.051584903 0.07922709 -0.20548606 -0.11640784 0.11700964 -0.07278162 -0.105305806
-0.16434363 0.08654772 -0.021724615 0.019805826 0.2877355 -0.09572732 0.043661762 0.12335384
-0.13948059 -0.112969294 0.13861436 0.0051208436 -0.009566377 0.1356496 -0.06885991 -0.2301983
0.1538488 -0.117230915 -0.08740546 -0.005449027 0.26225427 -0.19816029 -0.14229068 0.045775875
-0.24012531 0.7949045 0.16970916 -0.10256934 -0.1905466 0.11662491 0.06186333 0.07721947
0.050338805 -0.07681825 0.05106081 -0.19568697 -0.12326135 0.21277076 -0.07165987 0.44094065
0.14402103 -0.27734172 -0.030538416 -0.19996697 -0.14904743 0.04863317 0.032160982 -0.041908786
-0.108437315 -0.1957355 0.25418195 0.12199808 -0.42328033 0.12005507 0.3989255 0.028663708
0.081656896 0.41307145 0.027948633 -0.04801862 -0.012440364 -0.11301748 0.06316446 0.129315
0.04372306 -0.1151683 0.014992975 0.0052814367 -0.17870902 0.16399492 0.11213192 -0.25546718
0.122410506 0.20566191 -0.14132515 -0.098569795 0.2771774 -0.096890055 0.2360157 0.048155326
-0.092418835 -0.07010563 -0.0022350252 0.11087488 -0.11950678 0.043849006 -0.07530245 -0.08726406
-0.11146672 -0.027360499 -0.047074676 0.03325388 0.09734875 0.029070169 -0.08159089 0.004164338
0.026975706 0.05258648 -0.052101687 0.08951168 0.10863912 -0.079219 -0.047507823 0.0070126206
-0.035429448 -0.08775902 0.00879176 -0.115141094 0.07309766 0.049400955 -0.027983338 -0.09164563
0.004647106 -0.0081881285 0.01430808 -0.08980188 -0.07512696 -0.024728581 0.0765889 0.08226584
0.041802347 -0.025008261 0.08754642 0.11012606 0.11096802 -0.08961019 0.0640645 -0.066891745
0.10635294 0.0695443 -0.03190525 0.0038229972 0.116610944 -0.08460423 -0.03182912 0.062383354
0.07000381 -0.037678286 0.0068811625 -0.026373267 -0.08444977 -0.11389297 0.081783324 -0.059682906

bias f4 [32]
00000000: f295 39be 01ca 793e 8a0d 2abe aa9b f2bd
00000010: eff1 e2bd b883 73be ace6 c0bd 1a6b 19be
00000020: af8b a43e 60c9 37be 7b0b 613e ebf8 bfbd
00000030: 63bb a73e 0a47 ac3e 2318 9fbd 428d e1bd
00000040: 04a7 63bd e45c 7d3e d18e 28be f75a 8b3e
00000050: e547 98bd fd9e b33e 6a6d 4dbe 3cd2 793e
00000060: 58bd 0abe 6694 d1bd da31 48be 153a 0ebe
00000070: 9604 e1bd 44da 27be a17d 15be bfb2 aa3e
-0.18123606 0.24393465 -0.16606727 -0.11846097 -0.110813014 -0.23780715 -0.09418997 -0.14982262
0.3213782 -0.17947912 0.21977036 -0.09373649 0.32760152 0.33647949 -0.077682756 -0.11013271
-0.0555792 0.24742466 -0.1646073 0.27217838 -0.07435588 0.35082236 -0.2006127 0.24396604
-0.13548791 -0.10233383 -0.19550267 -0.13889344 -0.10987203 -0.16391855 -0.14598705 0.33339497

weight f4 [2, 32]
00000000: 8fbb 3cbe 7ff3 243e 66a7 19be ad25 0ebe
00000010: 07c9 85be 050e 3fbe edfd d7bd 1827 57be
00000020: 4af7 bb3e 7d29 6abe 17b8 543d 0b0e 123d
00000030: ac02 923e c643 b03e cfbf 0fbe db00 3fbe
00000040: bc2d b3bc 4b96 b13e 1625 8c3c b26c 863e
00000050: 3e77 afbd 4d59 c03e c004 223d 8ec7 b53e
00000060: 4cac 0abd 9ff1 603e 799a 27be 8343 00be
00000070: 3075 0b3d 4ae8 e4bd 12ff 06be 1b0b 893e
00000080: f826 423d b717 9dbe 6fe5 983d 00cb aeba
00000090: bd7b 40bd c312 9cbc 459c 1cbe 7632 e23c
000000a0: 7898 c5be 98db c43d f2be c0be 8d7a 153d
000000b0: 543b a0be cb94 1abe b1f0 57bd f368 0a3e
000000c0: ea5a 81be 8355 00be 3727 033e a8f5 6abe
000000d0: 9a15 fa3d dc97 5ebe 6e0b 193e ab31 2dbe
000000e0: 4b81 c8bd 0a7d ccbe 1d64 adbb 1df3 453e
000000f0: 7412 34bd a84c a33e e407 4b3c 98bf b1be
-0.18430923 0.16108511 -0.15005264 -0.1388156 -0.26129934 -0.18657692 -0.105464794 -0.21011007
0.36712104 -0.22867389 0.051933374 0.035657924 0.28517663 0.34426707 -0.14038013 -0.1865267
-0.021872394 0.34684977 0.017107528 0.26254803 -0.085676655 0.3756813 0.03955531 0.3550381
-0.03385572 0.21967171 -0.1636752 -0.12525754 0.034047306 -0.11177118 -0.13183239 0.26766285
0.047400445 -0.30682155 0.07465636 -0.0013335645 -0.046993006 -0.019051915 -0.15293987 0.027611952
-0.38592887 0.09612197 -0.3764568 0.036493827 -0.31295264 -0.15095823 -0.052719776 0.13516597
-0.25264674 -0.1253262 0.12807928 -0.22945273 0.122111514 -0.21737617 0.14945766 -0.16913478
-0.09790286 -0.39939147 -0.0052914754 0.19331022 -0.04396291 0.31894422 0.012392018 -0.34716487

bias f4 [2]
00000000: 95b9 ba3e b0b6 c2be
0.36469713 -0.38030005
